best_psnr.pth (torch, 279644 bytes, 6 tensors)

conv1.weight f4 [64, 3, 9, 9]
00000000: 8073 5cbb 865d 053d 9766 813b dfdc 96bb
00000010: 614f 81bc 4d98 18bc bfbf 42bc 3114 77ba
00000020: 368c 8dba 8481 e03c cf94 87bb 6c42 b2bb
00000030: f69a 353c 6efe 3b3d 5482 07bd 28e0 a3bd
00000040: fe8a 273c 5432 f03c 6844 443c 69c9 823c
00000050: d2dd bdbd 4328 02bc b53c dc3d 2f66 283e
00000060: f99f b1bd 4c72 e5bd a20b 043c 69a6 e43c
00000070: 5f46 873c 88d8 b93c 7fb3 dc3d 538b ed3d
00000080: c204 7c3e ac7d d93d 9f0c c03c 7c81 923d
00000090: 9953 8abd a6c2 42bd 7c03 19bd 7773 1ebe
000000a0: 7364 a2be 7215 9cbd ebf5 d43c 8b40 bebb
000000b0: 1d33 e5bd 928b a2bc f7df 203d 9fda b53d
000000c0: 75a2 88bb 7513 6fbe b25a 18bc e93c f63d
000000d0: 2546 9f3d d915 6dbc bddc e2bc 25fb 83bc
000000e0: e717 9b3d 6d90 3a3d 6d37 c1bd 3ce4 053d
000000f0: 76f7 9cbb ff31 1bbc d773 af3b 73f7 113d
00000100: eeee ffbc a86b d4bc 553c 0d3d 6a0e 613d
00000110: 449c 9c3c 9fa9 1bbd 563f a3bc 43ee 363c
00000120: fc2d e63c dcc2 92ba 3caf d1bc 26ac 62bd
00000130: 338a aa3d be2c c1bc 87cc 2fbd 9403 6b3c
00000140: 2598 a03c 67b4 183b 8909 68bc 56d9 023a
00000150: 218d fcba 0d3f 76bb e25e d9bb 29a4 563c
00000160: 61d9 dc3c 4e3c 55bc 3fba 463c 4d4d 403c
00000170: d494 bcbb 0694 8f3c 12d8 c43c bf4c 90bc
00000180: 49e7 9fbd 8915 6c3c 825c 373d 2e47 a7bb
00000190: 200a a2bc 0df2 50bd fbf3 963c 5443 ad3d
000001a0: 643e fc3d 3649 e4bd 0056 8fbd cea7 d53c
000001b0: 5d4d 873d 37b7 bc3c 1f75 15bd ab83 6c3d
000001c0: 78ec 103e d0d7 ad3e d83c c03d b8e0 07bd
000001d0: af0c d23c c69a 0ebd fd23 fbbc 3b35 52bd
000001e0: a8d6 d4bd e9ea 8ebe 1330 943b d452 c43d
000001f0: 9de4 5bbc 009d bbbd e2e7 30bd c154 e23c
00000200: 4ffa bf3d b147 1cbd 9038 9ebe 7f6c 92bd
00000210: f5fc 853d b3ec 083d 2d52 693c b8f4 3abd
00000220: 14e1 913a da87 c03d 9088 243d 059b c1bd
00000230: 3eb0 fd3c 0de7 23bc 0168 563c 29c2 22bc
00000240: 0122 f13a 0a0b d6bc 7532 4ebc bf33 103d
00000250: bc30 7c3b 6d23 9cbc 0d75 19bd 2833 36bc
00000260: 45c5 8b3c ffce 2e3d fac3 0c3c cf59 01bd
00000270: 116e 32bc e5eb 0b3d 1d31 3abd d325 39bc
00000280: d048 813d 1aeb 2abd 154b aa3c 03e2 09bd
00000290: 65fe 7bbc 2acb 2d3d c0df a43b 256d 133c
000002a0: 5659 5f3d c179 073d 698d b7bd 85e3 b4ba
000002b0: e162 05bc 535f 1d3d a798 343c 1334 91bd
000002c0: a7cc b7bd 5b33 0cbd ac4d b43d 818e df3c
000002d0: a107 fabc f47e 85ba b87d febc 4f21 d63c
000002e0: cc8a cc3d 34df 413d 1340 c3bd c15b d4bd
000002f0: 379d 883d f1cd 7e3d e1a1 48bb 48f5 45bc
00000300: e254 263c 74dd 363d 2e00 373e 6c0b 233d
00000310: ca9c 8abd 9c6a 3e3d 0d7a ebbc ac63 e93c
00000320: 4cf7 04bd 604d 61bd bc3d 4abe 4b44 0f3d
00000330: 03cd bf3d 4c09 e33c bfa7 19bc 5511 98bc
00000340: 9b74 b33c d2db a23d 20bf cebb a570 45be
00000350: 834b b73c d56b f43c 4357 f9bc 805d 383b
00000360: 408f c5bb 04df 95bb b2d0 8e3c a5bb 143d
00000370: 12e8 c8bc 59ac a03b 1b01 73bd 741d 4fbd
00000380: 1464 cb3c da2c 183c e235 9abc c1c7 e3bc
00000390: 5cf5 b8bc 8a47 a63d 3fa8 533b 6b08 50bd
000003a0: ed16 073d 2483 65bc f58a 05bc fc46 b53c
000003b0: b6ec 43bb a778 7739 7278 c23c d4d6 36bd
000003c0: 0456 883c 2199 af3d 0a68 13bd b8c2 553a
000003d0: 0858 56bd 4466 bebb f2f9 f3bb 513b af3d
000003e0: 45b7 fcbc ee43 58bd 03f2 35bd 391f 843b
000003f0: 6709 d9bc bf1b f5bc ce77 463b 8053 813a
-0.003363818 0.032559894 0.0039489972 -0.0046039666 -0.015784921 -0.009313655 -0.011886536 -0.0009425311
-0.0010799232 0.027405508 -0.0041376124 -0.005440047 0.011084309 0.04589694 -0.033083275 -0.08001739
0.010226009 0.029320873 0.0119792 0.01596518 -0.092708245 -0.007944169 0.107537664 0.1644523
-0.086730905 -0.11203441 0.008059414 0.027911382 0.016513048 0.022686258 0.10776424 0.115988396
0.2461119 0.10619673 0.023443518 0.071536034 -0.06754226 -0.047548912 -0.03735684 -0.15473734
-0.31717262 -0.07621278 0.02599617 -0.005806034 -0.1119139 -0.019841943 0.03927609 0.08879589
-0.004169757 -0.23347266 -0.009298967 0.120233364 0.07777051 -0.014470541 -0.027693147 -0.016110966
0.075729184 0.04554789 -0.094344 0.032688364 -0.004790242 -0.009472369 0.0053543854 0.035636377
-0.03124186 -0.02593024 0.034481365 0.054945387 0.019117482 -0.03800356 -0.019927662 0.011165204
0.028098099 -0.0011196989 -0.025596254 -0.055339955 0.08327141 -0.023580905 -0.04291966 0.014344115
0.019603798 0.0023300888 -0.01416243 0.0004991492 -0.0019268134 -0.0037574202 -0.0066336254 0.013100662
0.026959123 -0.013014866 0.0121293655 0.01173718 -0.0057550464 0.017526638 0.024028812 -0.01761472
-0.07807786 0.014409431 0.044765957 -0.005104921 -0.019780219 -0.051012088 0.018426886 0.084601074
0.123165876 -0.111467764 -0.06998825 0.026080992 0.06606553 0.023036582 -0.03648865 0.057742756
0.14152706 0.33953714 0.09386605 -0.033173293 0.025640814 -0.034815572 -0.030656809 -0.051320296
-0.10392505 -0.27913597 0.0045223325 0.09586111 -0.013421205 -0.09160805 -0.04318989 0.027628304
0.093739145 -0.038154308 -0.3090253 -0.071496 0.06542388 0.03342886 0.014240784 -0.04564354
0.00111297 0.09400912 0.0401693 -0.09453396 0.030967828 -0.010003817 0.01308632 -0.009933987
0.0018396975 -0.02612831 -0.012585272 0.0352056 0.0038481196 -0.019059861 -0.037465144 -0.011120595
0.017061839 0.042677876 0.008591646 -0.03157979 -0.0108905 0.034160513 -0.045456994 -0.011300522
0.06312716 -0.041728117 0.020787755 -0.033662807 -0.015380477 0.04243008 0.005031556 0.00899819
0.054528557 0.033075098 -0.08962519 -0.0013800716 -0.00814125 0.038420986 0.011022723 -0.070900105
-0.08974581 -0.034228664 0.08803877 0.02728963 -0.030521216 -0.001018493 -0.031065807 0.02613893
0.09987411 0.047332004 -0.095337056 -0.10369063 0.06670611 0.06220812 -0.0030614065 -0.012082405
0.010152074 0.044644788 0.17871162 0.039805815 -0.067681864 0.04648839 -0.028744722 0.02848991
-0.032462403 -0.05500543 -0.19750112 0.03497724 0.09365275 0.027714394 -0.009378373 -0.018562952
0.021906188 0.07952084 -0.006309405 -0.19281252 0.022374874 0.029836575 -0.030437117 0.0028131902
-0.0060290396 -0.0045737047 0.017433498 0.036311764 -0.024524722 0.004903358 -0.059327226 -0.050565198
0.024827994 0.009288037 -0.018824521 -0.027805211 -0.022577934 0.08119114 0.0032296327 -0.050789278
0.032980848 -0.014008317 -0.008150806 0.022128575 -0.002989573 0.00023600702 0.023739073 -0.04463847
0.016642578 0.08574129 -0.03598789 0.00081543205 -0.052330047 -0.005810531 -0.0074455673 0.085562356
-0.030849108 -0.052799158 -0.044420253 0.0040320423 -0.026493741 -0.029920457 0.0030283812 0.0009866804

conv1.bias f4 [64]
00000000: 117a e5bc 0af2 833d 1400 0d3e eed6 e3bc
00000010: 9875 f8bb eeb7 dbbc 9395 923d 89fe 1ebd
00000020: 0123 c9bb 017e 9abc efa1 bcbc a7d6 c6bb
00000030: 0a3c bfbe 0269 9b3d 7a2d 153c 69df ee3b
00000040: db10 02bd a967 10bd 9098 1abc 98c1 253d
00000050: 3bc1 5abb 2efb 35bb b45c 923b 895f 1739
00000060: 7589 743d 8e79 1fbf 713e 283c c5c0 cd3c
00000070: c750 8dbe 431b 0f3d 3223 0abd 3784 793d
00000080: 1699 f73b 6279 3abb f60a efbb 9281 d1bd
00000090: 8bc1 53bc 331c b93d 4ae1 e7bb 9196 bdbd
000000a0: db24 1cbc b73b 553b f38b 6e3b e4ae 04bc
000000b0: 5d9a 833d 335e 0e3e 1a07 98bb 96f0 5a3d
000000c0: 08d9 c8b9 3bb1 93bb 925a 4cbb 63fd f1bc
000000d0: 197a bdbc d023 503d c35d 3bbf 2908 8fbc
000000e0: a4fb 663d 3b68 19bb 3718 afbb f51d 69bd
000000f0: c5ab 403d 7a74 ac3d 028d 703b 3eb7 d4bc
-0.028012307 0.0644265 0.13769561 -0.027812447 -0.0075823776 -0.026821103 0.07157435 -0.038816962
-0.006138206 -0.018858911 -0.023026435 -0.006068069 -0.37350494 0.07588388 0.009105081 0.007289816
-0.031754356 -0.035255108 -0.009435788 0.04046783 -0.0033379334 -0.0027768123 0.0044666175 0.00014436072
0.0597014 -0.6229485 0.010268793 0.025116334 -0.2760069 0.03493811 -0.03372497 0.060917106
0.007556091 -0.0028453697 -0.007295008 -0.10229792 -0.012924562 0.09038582 -0.007076417 -0.09257234
-0.009530271 0.0032536814 0.0036399334 -0.008098338 0.06425927 0.13903122 -0.0046395184 0.053452097
-0.00038308674 -0.0045072115 -0.0031181914 -0.02953977 -0.02312951 0.050815403 -0.73189944 -0.017459946
0.056392327 -0.0023408073 -0.005343463 -0.056913335 0.047038812 0.08420654 0.003670514 -0.025966283

conv2.weight f4 [32, 64, 5, 5]
00000000: 5b1a a8bc 728d e8bc 9c35 74bd b930 e4bc
00000010: f028 a23c 551c 47bd 0b53 d6bb 4133 213d
00000020: 81ad 61bc 9e33 c63b 4416 0cbc e4aa 9b38
00000030: bab3 54bd df08 833c 9a1a f63b cb74 173d
00000040: f2b3 473d 8c3d a1bd d8d9 943d 9188 1dbd
00000050: d0df 333d 0b17 003d a43d 7cbb 14bd 813d
00000060: aa85 a3bc 6357 44bd 9127 143d d0fd 44bd
00000070: 5051 1bbd 0f10 803b 473e 303c 331a 063c
00000080: be8f 0f3a a008 f73a 893b 323d b2ec 303d
00000090: b151 88bd b002 c53c acd4 373c 9847 b3bc
000000a0: 83b0 8b3c c9d8 62bd 6dd2 d83b 76e4 87bc
000000b0: e88c 14bd a5a2 54bd f4ac 163d 8777 f7bc
000000c0: 4f59 523c 17c4 15bc 26dc 053c 77a7 033d
000000d0: 769b 68bd fd17 6cbc 5c84 9abc 93c7 333d
000000e0: ba93 b8bc ae7e c3bc 6835 203c 6063 5539
000000f0: b4a1 823c 5d5a e43c f022 d73c 9446 8d3c
00000100: cc0f e4bc b1cf 323d f2c9 d03b 27c4 493d
00000110: f83a 3f3c 1f9b 94bd fb6a 18bd b324 93bc
00000120: 91d9 81bc 1402 233d 0698 cc3b 6ddb 793d
00000130: e290 e63d 98c7 f1bd 5a3d 51bd 0445 963d
00000140: a86e 0b3d 264d 8ebc 0a58 243d d3b2 02be
00000150: 87c0 0ebd 6c11 8ebc 928b b03c 79bf 15bd
00000160: 815b 933d 4cf3 29be e7a2 cabc b3ff d9bc
00000170: 7a42 0bbe 3b32 1d3e 06db 803d fbe8 1abd
00000180: 6196 d03b 0a1f e0bd b7fd b6ba 9bba 3bbc
00000190: 72d1 97bc d4d6 23bc 7402 893b 7cb8 e43c
000001a0: 6867 7fbc bf8b 323d 2263 11bc 496b 93bb
000001b0: 8b9f 0b3d 865b 963b 10bd 6ebd 223e 103a
000001c0: 4005 59bb 4688 363c 3055 dc3b 2ada 9bbd
000001d0: c68f af3c 3d91 4b3d d39d ef3b 4cca 613c
000001e0: a1b3 123d c63e bf3c 627b 2f3d d335 d6bc
000001f0: 25fb 143d 50c4 dc3c 84e0 9e3d ed80 0c3d
00000200: ea02 df3c 1ee2 183c d68f 363d 92e5 993d
00000210: 8350 c8bb 7e3f 26bd 7017 a03b dcfb 8dbc
00000220: 5fe6 9e3d 7c2a 873d 0c3f 35bc 4634 19bd
00000230: e4ac 44bd a8f6 a2bc 9c94 263d 1181 e73c
00000240: 18f9 24bd 1d02 babd c5fd 5cbd 3ae3 e63c
00000250: e754 27bd c922 d8bc 00d3 98bd a2bf 8d3c
00000260: 318c 983b 5fd4 e83a 1b6e bdbc 5876 53bd
00000270: 5205 81bc cd3e 4a3c a810 fabb dc84 973c
00000280: add9 c0bc fe95 f9bc 9fd0 9a3c 6907 be3c
00000290: 65a7 6f3d 29e6 7e3c b6b2 8d3c 21af b73b
000002a0: 92f8 093c 336e e2bb 9d2d d5bb 412a 813d
000002b0: f6e0 9ebb e379 453d f667 d3bc 315c 01bc
000002c0: 5845 013d 90b4 1f3b 31d7 5a3d 273f 913b
000002d0: 1b28 b33c 6941 8a3b 3ee2 cf3b 1c16 833d
000002e0: ac7c dfbc bcca 003d b82b cf3c 07bd 093d
000002f0: 40e3 8f3b fa89 0d3b 3021 383d 84a7 743d
00000300: 7c84 233d d736 e13c 5882 e23b 4d8e d13b
00000310: 5548 b13c 0ca3 873c 125d 523d a8a3 873d
00000320: c44d 983c 5ab7 87bc 0bed 97bc 7f0c d53b
00000330: 628b 293d d4a8 1e3d 1256 abba 82e7 edbc
00000340: cba4 613d 7942 233c e826 c43c e3b2 703d
00000350: 6d5a a8bc da93 113d a480 3839 af7f deba
00000360: 888d 2dbd bce6 18bd 3736 393c 28ad f53b
00000370: 2603 163d 4ffc 01bc 6908 10bc ac7a bb3d
00000380: a371 d03c 27a5 b83c 8325 61bd 1567 dcbc
00000390: 16fb 5fbd 152c f9bc b5a8 c7bc 17f9 9cbb
000003a0: 5fbd 9ebd 2e8e 45bc f853 07bd 9837 f8bc
000003b0: d1b1 68bd 5724 5938 5792 e7bc 184b e03c
000003c0: c5e9 fcbc 486f 01bd 13a7 26bd 8983 6cbd
000003d0: d715 7bbd 7df0 39bb 7562 91bd 6a75 00bd
000003e0: 98bd 9c3c f80a 15bb 6581 4f3e 6d53 d53a
000003f0: 9fe8 bebd c48b 623b 05fe 3e3d ebc6 8dbd
-0.02052038 -0.028387759 -0.05962144 -0.027855264 0.019794911 -0.048611004 -0.006540661 0.03935552
-0.013774277 0.0060486337 -0.00855023 7.422807e-05 -0.051929213 0.015995441 0.0075104954 0.036976617
0.048755594 -0.07873067 0.07268113 -0.038460318 0.043914616 0.031271975 -0.003848889 0.06334892
-0.019961197 -0.0479349 0.036170546 -0.048093617 -0.037919343 0.0039081643 0.010757036 0.008184957
0.00054764363 0.0018847175 0.04351381 0.04319448 -0.066562064 0.024049133 0.0112201385 -0.021884724
0.01705194 -0.055382524 0.0066168816 -0.01658843 -0.03626719 -0.051912922 0.036786035 -0.030208362
0.012838676 -0.00914099 0.008170163 0.03214213 -0.056788884 -0.014410016 -0.018861942 0.0438915
-0.022531379 -0.023864117 0.009778358 0.00020350283 0.015946247 0.02787512 0.026261777 0.017245568
-0.027839564 0.0436551 0.00637173 0.04925933 0.011671774 -0.072561495 -0.0372114 -0.017961835
-0.015850814 0.039796904 0.0062437085 0.061000276 0.11258103 -0.118056476 -0.0510839 0.073373824
0.034041077 -0.017370772 0.040123023 -0.12763529 -0.034851577 -0.017342292 0.021550927 -0.036559556
0.07195187 -0.16596717 -0.024735881 -0.026611185 -0.13599578 0.15351193 0.062917754 -0.037819844
0.006365583 -0.1094342 -0.0013961111 -0.011458064 -0.018532488 -0.0099999495 0.0041812006 0.02792
-0.015588619 0.043590304 -0.008873733 -0.0044988734 0.0340877 0.004588547 -0.058285773 0.00055024226
-0.0033114702 0.011140889 0.0067240223 -0.07609971 0.021430861 0.049699057 0.0073125153 0.0137811415
0.03581584 0.023345362 0.042842276 -0.026148712 0.036372323 0.026949078 0.07757667 0.03430264
0.02722307 0.009331254 0.044570766 0.0751449 -0.0061131134 -0.040587895 0.0048856065 -0.01733201
0.077587835 0.065999 -0.011062395 -0.037403367 -0.048016444 -0.019893005 0.04066907 0.028259786
-0.040276617 -0.09082434 -0.05395295 0.028184522 -0.040852454 -0.026383774 -0.0746212 0.017303292
0.004655384 0.0017763487 -0.023123791 -0.051626533 -0.015749607 0.012344074 -0.00763138 0.01849597
-0.023541296 -0.03046703 0.018898306 0.023196893 0.05850925 0.015557804 0.01729713 0.005605594
0.00842108 -0.0069101094 -0.0065056817 0.063068874 -0.004848595 0.048211943 -0.025806408 -0.007895515
0.031560272 0.0024369098 0.05342788 0.004432577 0.02186971 0.0042192233 0.006344109 0.064007014
-0.027281128 0.031443343 0.025289401 0.033627536 0.004391104 0.0021597133 0.044953525 0.059730068
0.03992127 0.02749197 0.006912511 0.0063951374 0.021640936 0.016557239 0.05135829 0.06623012
0.018591769 -0.016566921 -0.018545648 0.006501734 0.04139269 0.038735226 -0.0013071916 -0.029041056
0.0550888 0.009964579 0.023944333 0.05876435 -0.02055093 0.035541393 0.0001759553 -0.0016975309
-0.042371303 -0.03732942 0.01130443 0.0074974485 0.036624096 -0.00793369 -0.008791068 0.09154257
0.025444811 0.022539688 -0.054967415 -0.026904622 -0.054682814 -0.030416528 -0.024372438 -0.004790436
-0.077509634 -0.012057824 -0.033039063 -0.030299947 -0.056810204 5.1770676e-05 -0.028268022 0.027379557
-0.030873189 -0.031600267 -0.04068668 -0.05774263 -0.061300125 -0.0028372102 -0.07098857 -0.031361975
0.019133374 -0.0022742134 0.20264204 0.0016275473 -0.09321713 0.003456817 0.04662897 -0.06922706

conv2.bias f4 [32]
00000000: 5cc3 90bb d2ad aabb df80 72bb a18d 563c
00000010: 0d21 2a3c 7d2f 413d 793b a0bc 88fc 0abd
00000020: 809d d5bb e879 d43c d2d3 f03c 403c de3c
00000030: 5091 54bb 8b23 9a3c 3c22 853c 4cc1 d6bb
00000040: 4c92 3aba f538 e83c b835 fdbd c6ff 78bc
00000050: 967d 113d 9088 3c3c 49e8 3abb ce9b cfbb
00000060: 7f6a febc 5f4d fcbb da8f 0a3c 01ef 7fbb
00000070: 16be 923c 283b 65bc e7bb 193c 8855 e5bb
-0.00441782 -0.0052087093 -0.0037003083 0.01309529 0.0103838565 0.04716443 -0.019559609 -0.03393224
-0.0065190196 0.025937036 0.029397879 0.027128339 -0.0032435246 0.018815776 0.016251676 -0.0065538045
-0.0007117137 0.028347472 -0.12363762 -0.0151977 0.03552016 0.011507168 -0.00285198 -0.006335712
-0.03105664 -0.007699653 0.008457148 -0.003905237 0.017912906 -0.013991155 0.009383178 -0.0069987215

conv3.weight f4 [3, 32, 5, 5]
00000000: dfdd 693a de72 db3c 7ce9 443d fefc 453d
00000010: 7959 aabd 44de fe3d 84b3 5dbc fc9f 5a3d
00000020: 608d 563d 1c52 02be 5634 63bd df2a a3bd
00000030: a121 01bd 22b4 04bd cf61 2aba 41cc 873d
00000040: 9858 023c cf40 93bc a04d 013d 4831 93bd
00000050: 27aa fcbc b3fe 5a3c eec8 47bc deb8 acbc
00000060: 4825 5abd 86b2 cb3c b448 0abd 9925 4a3b
00000070: 45ce 12bd 49e8 2bbc 2eff 993c fb6d 28bd
00000080: b4c3 a33c 1151 71bc 4971 7ebd 7130 3d3d
00000090: 9687 3fbd 9ce2 2e3d 8ed3 a53d d20d 60ba
000000a0: e8bb 4e3c 709c 87bb 1f3e 8f3c 3c70 f0bb
000000b0: 8366 d93b 4979 30bc 503a 443c 36ea 13bc
000000c0: 9af7 9dbb 6701 93bc c263 493d a483 173d
000000d0: 66f9 a53c 597f 00bd e6fb 9dbc fc4b 78bd
000000e0: dc75 3f3d 382f 413c d321 a7bd 8890 173e
000000f0: 843a 24bd 55d9 043d 3c2d 303c 2cd5 b2bc
00000100: 84ee 883d 47c5 9c3c f6c1 c8bc 146f 15bc
00000110: e517 863a 709c 543d 6864 5fbd 59d6 88bd
00000120: be13 293d 8231 92bd 8484 083b 7fb6 723b
00000130: b5fe 06bd ea0a 903c 034f 08bd e40e ea3b
00000140: 77e9 f8bc 7833 bfba 9dcf 723b 3392 2fbd
00000150: 5366 4cbd 476a 223a a081 853d 80cb 4c3d
00000160: e59c 9a3c 6368 eb3b 055e d03c 6614 a33d
00000170: ccc6 9e3c 6d4b ab3c 4d39 8d3b 433b 64bd
00000180: 7d6b e1bd e6df 57bd 98d2 e93b 4b6d 5cbc
00000190: a20f 6fbd 76fa cdbb 9882 c33d f8de 86bb
000001a0: 3f3f 023c 3582 363d aed0 2dbb 55e6 2bbd
000001b0: c045 cfbc 1c95 14bd 31b0 b3bc e5ed e83d
000001c0: 6c65 82bc 45ad 6a3c 1db3 923d 5f4d 923c
000001d0: 45c4 293b 0d19 79bd d11f 5b3c d447 9d3b
000001e0: f831 b03b dd14 f9ba b1ef 3b3d da13 40bd
000001f0: 06b4 043d 95f9 0539 aff5 ad3c 4ad3 583d
00000200: 3164 913d 549e 8d3b a9cf 803b 1318 0e3d
00000210: b85e fabc 4af9 b6bd 8b79 67bd 9b31 463c
00000220: 1580 1cbd 5ede cfbc 651a 95bd 8f8a 1a3d
00000230: 623c 813d 7dad 303c 7dc7 413b 31c4 a33d
00000240: 120b e63a ad55 e13c f452 ed3b 51e6 853c
00000250: c0b0 38bc 6ca2 2fbd 5a40 753d c85e 4d3b
00000260: 2469 87bd 0984 a4bc 969f 5c3c 178b ef3c
00000270: 968f 183c 0d47 6b3d 990e c73d 0e98 40bd
00000280: 7a87 36bc 9d23 463d 1b48 013d 51fe 843a
00000290: 4afa bd3c 2212 71bd 4e75 f8bd 6b0b bb3a
000002a0: 8e79 25bc f06f 92bd 8a4a 33bd bf62 1cbd
000002b0: 4950 493c 1cda 623c 9d97 81bc 1f2e 213d
000002c0: bb84 69bc e019 c2bd 0ac0 24bc 4a29 70bd
000002d0: 2565 2cbb 39bd 903d 1ceb 03bd 6ae8 84bc
000002e0: 0b7e 3fbd 4a2c 813d d430 863c f7f8 ff3c
000002f0: 0011 2e3d 15b1 96bd 0547 353d c68b 76bb
00000300: fd70 1dbb 5c32 b03d c887 123c 6854 153d
00000310: 5b39 4cbc d030 55ba 32f7 4a3c 6081 49bd
00000320: b772 bebd 2849 913c 57dc 333c 0bde 5a3c
00000330: 2411 623d 78c1 8d3c 2979 c33a e99b eebb
00000340: 6d81 7abd fdee f93c b62a 463c b4d5 51bd
00000350: 395b 973c df82 0b3c d4bb fe3c 7a2b 28bd
00000360: 7e89 e33c c0d8 f43c 726d 43bd 797f 92bb
00000370: e5d3 34bc bed6 0bbd 918a 6fbd 49e7 01bd
00000380: 7536 403d 4b2e 3abd 4576 c63c 7b26 223d
00000390: bd6d d8bc 2399 e0bb fcc0 a03c 0ae5 3fbd
000003a0: 2b68 c73d ac8c dbbc 3099 83bb 88e9 21bc
000003b0: 4dc9 6d3c 9e92 163e 8f07 6a3d 13f1 4ebd
000003c0: 096d 26bd 66fa d43d 5825 2fbc 6b1a 003b
000003d0: 198e 1abc 3fc6 c33c d3a2 3f3c 6806 82bd
000003e0: cd65 563c 4aa7 923b 6328 1f3d 91ec 6e3c
000003f0: a933 6d3d 576e 483d 6336 53bd e75a 3c3c
0.0008921306 0.026788171 0.04807423 0.048336975 -0.08317847 0.124447376 -0.013531569 0.05337523
0.05238092 -0.12726635 -0.055469833 -0.079671614 -0.03152621 -0.03239835 -0.000649956 0.06630755
0.007955693 -0.01797524 0.03156817 -0.07187134 -0.030842854 0.013366389 -0.012193901 -0.021084245
-0.05325821 0.0248654 -0.03376074 0.0030845164 -0.035841245 -0.010492393 0.018798437 -0.04112051
0.01999078 -0.0147288 -0.062119756 0.046188775 -0.046760164 0.04269658 0.080969915 -0.0008546981
0.0126180425 -0.004138522 0.017485676 -0.007337598 0.006634535 -0.010771104 0.011976793 -0.009028008
-0.004820776 -0.017945005 0.049167402 0.036990777 0.020260524 -0.03137145 -0.019285154 -0.06061934
0.04674326 0.011791043 -0.08160748 0.14801228 -0.040094867 0.032433826 0.010752972 -0.021830164
0.06686118 0.019137038 -0.02450655 -0.009120721 0.001023051 0.051907003 -0.054539114 -0.066815086
0.041278593 -0.07138349 0.0020830939 0.0037035046 -0.03295775 0.01758333 -0.033278476 0.0071428884
-0.030384762 -0.0014587482 0.0037050017 -0.042864036 -0.04990227 0.0006195646 0.06518865 0.04999876
0.018873641 0.0071840747 0.025435457 0.07962875 0.019381903 0.02090999 0.0043098093 -0.05572058
-0.1100683 -0.05270376 0.0071357004 -0.013453792 -0.058364518 -0.006285961 0.09546393 -0.0041159354
0.007949649 0.04455777 -0.0026522088 -0.04196771 -0.025301814 -0.036275014 -0.0219346 0.113735
-0.015917502 0.014323537 0.071630694 0.017859159 0.002590434 -0.060814906 0.013374285 0.0047998223
0.0053770505 -0.001900341 0.045882884 -0.046893932 0.032398246 0.00012776845 0.021235315 0.052935876
0.07099188 0.0043218527 0.003931005 0.034690928 -0.030562744 -0.08934267 -0.056512397 0.012096788
-0.038208086 -0.025374588 -0.07280425 0.037729796 0.06310345 0.01078355 0.0029568367 0.07996405
0.0017550907 0.027506674 0.007242555 0.016345175 -0.011272609 -0.042879507 0.059875824 0.0031337012
-0.06611851 -0.02008249 0.013465783 0.029241128 0.009311577 0.057440806 0.09719581 -0.04702001
-0.011140699 0.048373807 0.031562906 0.0010146593 0.023190636 -0.058855183 -0.12131749 0.0014270371
-0.010099782 -0.07150257 -0.043772258 -0.03818011 0.012287208 0.013845947 -0.015819365 0.039350625
-0.014252837 -0.094775915 -0.010055551 -0.058633126 -0.0026305404 0.07067341 -0.03220664 -0.016224105
-0.046751063 0.063072756 0.016380705 0.031246645 0.04249668 -0.073579945 0.044257183 -0.0037619933
-0.0024023645 0.08603355 0.008943506 0.03645745 -0.0124648465 -0.0008132579 0.0123880375 -0.049195647
-0.09299224 0.017735079 0.010977826 0.013358603 0.055192128 0.017304167 0.0014913428 -0.0072817695
-0.061158586 0.030509466 0.012095144 -0.051229194 0.018476116 0.008515089 0.031095423 -0.041057087
0.027775522 0.02988851 -0.047711797 -0.0044707623 -0.011036848 -0.03414034 -0.058481757 -0.03171471
0.046926934 -0.045454305 0.024226317 0.03958748 -0.026419515 -0.006854193 0.019623272 -0.046849288
0.09736665 -0.026800476 -0.004016064 -0.009882338 0.014513326 0.14704368 0.057136115 -0.050522875
-0.040631328 0.10399322 -0.010690056 0.0019546996 -0.009433293 0.023898242 0.011696535 -0.06348878
0.013085795 0.004475509 0.038856875 0.014582769 0.057910595 0.048933353 -0.05156554 0.011496282

conv3.bias f4 [3]
00000000: 172b 90bb c682 6b3a b704 8fbb
-0.004399668 0.00089840253 -0.0043645757
